…
	 test_only            : False
	 epochs               : 50
	 lr_interval          : [30, 40, 45]
	 lr_reduce            : 10
	 optimizer            : SGD
	 weight_decay         : 0.0005
	 momentum             : 0.9
	 amsgrad              : True
	 dropout              : 0.3
	 kernel_size          : 3
	 devices              : 0
==========================================================================================
Layer (type:depth-idx)                   Output Shape              Param #
==========================================================================================
DataParallel                             [64, 10]                  --
├─VGG: 1-1                               [64, 10]                  --
│    └─Sequential: 2-1                   [64, 512, 4, 4]           --
│    │    └─Conv2d: 3-1                  [64, 64, 64, 64]          576
│    │    └─ReLU: 3-2                    [64, 64, 64, 64]          --
│    │    └─Dropout: 3-3                 [64, 64, 64, 64]          --
│    │    └─Conv2d: 3-4                  [64, 64, 64, 64]          36,864
│    │    └─ReLU: 3-5                    [64, 64, 64, 64]          --
│    │    └─AvgPool2d: 3-6               [64, 64, 32, 32]          --
│    │    └─Conv2d: 3-7                  [64, 128, 32, 32]         73,728
│    │    └─ReLU: 3-8                    [64, 128, 32, 32]         --
│    │    └─Dropout: 3-9                 [64, 128, 32, 32]         --
│    │    └─Conv2d: 3-10                 [64, 128, 32, 32]         147,456
│    │    └─ReLU: 3-11                   [64, 128, 32, 32]         --
│    │    └─AvgPool2d: 3-12              [64, 128, 16, 16]         --
│    │    └─Conv2d: 3-13                 [64, 256, 16, 16]         294,912
│    │    └─ReLU: 3-14                   [64, 256, 16, 16]         --
│    │    └─Dropout: 3-15                [64, 256, 16, 16]         --
│    │    └─Conv2d: 3-16                 [64, 256, 16, 16]         589,824
│    │    └─ReLU: 3-17                   [64, 256, 16, 16]         --
│    │    └─Dropout: 3-18                [64, 256, 16, 16]         --
│    │    └─Conv2d: 3-19                 [64, 256, 16, 16]         589,824
│    │    └─ReLU: 3-20                   [64, 256, 16, 16]         --
│    │    └─AvgPool2d: 3-21              [64, 256, 8, 8]           --
│    │    └─Conv2d: 3-22                 [64, 512, 8, 8]           1,179,648
│    │    └─ReLU: 3-23                   [64, 512, 8, 8]           --
│    │    └─Dropout: 3-24                [64, 512, 8, 8]           --
│    │    └─Conv2d: 3-25                 [64, 512, 8, 8]           2,359,296
│    │    └─ReLU: 3-26                   [64, 512, 8, 8]           --
│    │    └─Dropout: 3-27                [64, 512, 8, 8]           --
│    │    └─Conv2d: 3-28                 [64, 512, 8, 8]           2,359,296
│    │    └─ReLU: 3-29                   [64, 512, 8, 8]           --
│    │    └─AvgPool2d: 3-30              [64, 512, 4, 4]           --
│    │    └─Conv2d: 3-31                 [64, 512, 4, 4]           2,359,296
│    │    └─ReLU: 3-32                   [64, 512, 4, 4]           --
│    │    └─Dropout: 3-33                [64, 512, 4, 4]           --
│    │    └─Conv2d: 3-34                 [64, 512, 4, 4]           2,359,296
│    │    └─ReLU: 3-35                   [64, 512, 4, 4]           --
│    │    └─Dropout: 3-36                [64, 512, 4, 4]           --
│    │    └─Conv2d: 3-37                 [64, 512, 4, 4]           2,359,296
│    │    └─ReLU: 3-38                   [64, 512, 4, 4]           --
│    │    └─Dropout: 3-39                [64, 512, 4, 4]           --
│    └─Sequential: 2-2                   [64, 10]                  --
│    │    └─Linear: 3-40                 [64, 4096]                33,554,432
│    │    └─ReLU: 3-41                   [64, 4096]                --
│    │    └─Dropout: 3-42                [64, 4096]                --
│    │    └─Linear: 3-43                 [64, 4096]                16,777,216
│    │    └─ReLU: 3-44                   [64, 4096]                --
│    │    └─Dropout: 3-45                [64, 4096]                --
│    │    └─Linear: 3-46                 [64, 10]                  40,960
==========================================================================================
Total params: 65,081,920
Trainable params: 65,081,920
Non-trainable params: 0
Total mult-adds (G): 83.10
==========================================================================================
Input size (MB): 1.05
Forward/backward pass size (MB): 570.43
Params size (MB): 260.33
Estimated Total Size (MB): 831.81
…
